deal_risk_model.tflite (tflite, 6160 bytes, 7 tensors)

arith.constant f4 [1, 8]
00000000: fe9c d33e b797 c83d 1ade 0bbf ab48 b83e
00000010: 144e f8bb cea4 afbe d536 55bf 3fbd 4ebe
0.41330713 0.09794562 -0.54635775 0.3599294 -0.007577667 -0.34305423 -0.8328679 -0.20189379

arith.constant1 f4 [8, 16]
00000000: eb46 f3be 5f03 b03e 4b1b dd3e cbf6 9c3e
00000010: f4a5 14bf 20c9 033f 20c9 8e3e 3f3f c2be
00000020: b898 763e 6c70 d6be ecc4 0f3f 7d1b a4be
00000030: b45d 013f e35a 0c3f f90b f33d 3d41 c63e
00000040: 9d0c 04bf 9870 b23d 21cc d5be a2ec 833e
00000050: 26e5 1dbe f26a c13d a170 b03e f669 cd3e
00000060: 0178 7a3e 0085 543d 4896 a8be 28f6 cabe
00000070: b8c3 42be ccd4 c9be c192 7abe 2845 ecbd
00000080: 05f0 a73e 098a 913e 3ceb a0be adcf 023f
00000090: 1cfe 4e3e f46d cf3e a606 533d d60e 37be
000000a0: 9b1a f2be f824 523e f590 b5be 8006 ab3d
000000b0: 7c67 ff3d 27ce aebe 86e3 e43e be51 fc3e
000000c0: 733e bf3e 79e9 6a3c 60bf c2be 8a65 07be
000000d0: f876 d3be a4bd cebe 139c 633e 3052 cbbe
000000e0: 8020 84be 582f aabe cd47 0b3e 70b7 d1bd
000000f0: 7207 9f3e 2b13 b7bd 64b6 be3d cdc9 a23d
00000100: 8aaa b9be 663e de3e 1a58 6abe a0b3 f4bd
00000110: 88d1 83be 4b46 8b3e d6e9 4a3e 2d35 543e
00000120: f70b dbbe f095 6d3e 9457 86bb 909f efbe
00000130: 8c89 dd3e 6ccb 463e 6f14 c2be 252b ab3e
00000140: a055 66be 7203 8cbe 25c8 6c3e bfb1 cfbe
00000150: b6cc f83d ff8a 62be cfba 873b 0066 afbe
00000160: fc67 933e 5878 2c3e 6fa2 e13e 3e83 6f3d
00000170: 212b d5be b589 8dbe e96f 5e3e af63 7dbd
00000180: 1eb1 553e ff48 ab3e 04af c53e f239 633c
00000190: 87f3 a43e 0ebe 93be 56e1 d23e 8ed0 23be
000001a0: 8448 c03e 40f0 813d 8638 c2bd a0bd 0cbe
000001b0: b35c 10be f306 98be 3917 e3be 7015 003f
000001c0: dc50 ff3e 604c bd3e a1c0 b8be 293e 123f
000001d0: 77dc 84be f0ed c8be 0146 f0bd 521e f5bd
000001e0: 1725 363e d4f2 c9be dc5c 9ebe e4e1 c1be
000001f0: bbf3 8d3e f273 2d3e 5209 91bc dd47 803e
-0.47515044 0.34377572 0.43184885 0.30657038 -0.58065724 0.5147877 0.2788782 -0.37938878
0.24081695 -0.41882646 0.56159854 -0.32052222 0.50533605 0.5482618 0.11867518 0.38721648
-0.51581746 0.08712882 -0.417573 0.25766474 -0.15419444 0.09444226 0.3446093 0.40119904
0.2445984 0.05188465 -0.32927155 -0.39640927 -0.19019973 -0.39420164 -0.24470045 -0.11536628
0.32800308 0.28425625 -0.3142947 0.5109814 0.20214123 0.40513575 0.051520012 -0.17876753
-0.47285923 0.20521915 -0.35462156 0.08350849 0.1247091 -0.34141657 0.44704837 0.49281114
0.37352332 0.014337891 -0.38036633 -0.13222328 -0.41301703 -0.4037906 0.22227506 -0.39711142
-0.25806046 -0.33239245 0.13601609 -0.10240066 0.31060368 -0.08939203 0.09312132 0.07948647
-0.36262923 0.4340698 -0.2288517 -0.11948323 -0.25745797 0.27202067 0.19815764 0.2072341
-0.42782566 0.23201728 -0.0040997956 -0.46801424 0.43269002 0.19413537 -0.37906215 0.33431354
-0.22493601 -0.2734638 0.23123224 -0.40565297 0.121484205 -0.22123335 0.0041421424 -0.34257507
0.2879027 0.16842782 0.4406924 0.05847477 -0.41634467 -0.27644125 0.21722378 -0.061862644
0.20868346 0.3345413 0.3861009 0.013868796 0.32217047 -0.28855938 0.41187543 -0.15997526
0.37555325 0.06344652 -0.09483437 -0.13744211 -0.14097862 -0.29692802 -0.44353655 0.5003271
0.49866378 0.36972332 -0.36084464 0.571261 -0.2594945 -0.39244032 -0.11732102 -0.11968674
0.17787586 -0.39443076 -0.3093022 -0.37867653 0.27725014 0.16938761 -0.01770464 0.25054827

arith.constant2 f4 [16, 32]
00000000: f14a c43d 2cab 043e 266f 8c3e e88c 823e
00000010: 73e3 af3e 2545 ca3d 8111 5cbe 3429 ce3d
00000020: 454f 49be 7a97 a4be d00b c0be f9ec 2c3e
00000030: 67b3 33be b17d c43d bd85 bbbe 9be1 edbd
00000040: dcc4 95be 175c d83d 2f28 89be 18a8 643e
00000050: 6337 b33e 7503 7fbe 1332 67be 296a 853e
00000060: d1fb 17be 156d 7a3d 6d75 c4bd 5809 05be
00000070: 97ee d2bd bf2a a83d 6116 0d3e 26eb 563e
00000080: 5645 69be 70be c93e 0bd7 233e 85cf 183e
00000090: 8f15 dd3e 89c2 5bbd 778d 9f3e dd19 5bbe
000000a0: d0b0 cb3e 044c 3bbc b9a9 8cbe 7e36 973e
000000b0: ebaa 453d 7df3 17be 7c85 9a3e 6eb6 523e
000000c0: 1b70 c93e 8872 6e3e d5a9 92be 56b2 273e
000000d0: 3487 ce3e 4c4b 14bd 79bc 21bd 26fa 683e
000000e0: feba 703e 7bad 6abe 99f8 a0be 21f3 be3e
000000f0: dfa0 c93e bd86 8dbe a2f9 6bbd 1429 79be
00000100: aa12 8ebd 4c7d 763e 2f91 aa3d 62dc b6bd
00000110: 28ca 433e 80cf 92be 37ee ac3e e1e7 bb3b
00000120: bb13 bfbe 0389 a63e 4746 563e 7fd0 40bd
00000130: 6dc2 55be 8774 a23e cdbe c43d 77fc 64be
00000140: e8fd 44be 2c87 b7bd ab7a 22be 853a abbe
00000150: 2688 a53e 218c 893e 9bfd 81bd 70af 883d
00000160: 3544 48bd a34a a8bd ea43 663e ad99 843d
00000170: 36a7 b5be b8f6 e4bd 4b58 a2be 6352 883e
00000180: 3998 aa3e a268 0abe e3a4 2bbd e011 963d
00000190: b8f9 df3e fbd3 8e3d 3602 9a3e b369 d43d
000001a0: 1c83 73bb 39af d0bd 9513 1f3e a31a 54bd
000001b0: 6ae4 9bbb 1367 9abe 05c6 28be b9f0 f6bd
000001c0: 28a0 193e c4ac 2c3e 151f 6a3e 1c5f 233e
000001d0: 283c 8f3e 7a5f 88be 1c6f 45be b3fb 953d
000001e0: 7bdb 65be 5708 33be 566c 503e 7540 1dbd
000001f0: 352d 4dbe eb7c b43d 66ce 2b3e f805 583e
00000200: 5b94 87be 8c66 a93e 033e 9bbc 7747 2fbd
00000210: a40d 2e3e ab5e adbe 67aa 1a3e 9675 cb3e
00000220: 3998 b33d a8a8 6abd beed 98be b566 89bd
00000230: ea8b 5cbe ecb7 0a3e 7982 313e dfb2 88be
00000240: 6c69 1fbe 70aa ab3e 3a65 83be b839 093e
00000250: b1fc e83d 101e afbd 0c97 503e a8cf bbbd
00000260: c4a0 bd3e a85b cb3d 6988 15be 8009 543e
00000270: 2708 b43e cabc 583e 3c8c ab3e e816 92be
00000280: a131 80be ba10 fabd 7a30 9e3e e951 603e
00000290: 03df 81be c347 c93e 25ca 863e 021d 0dbd
000002a0: 99ca 903c 68d2 c6bb cd32 153e e3c4 64bd
000002b0: 34fe 7fbe 9677 42be 9bf8 293e 4fcb 2abe
000002c0: 27d4 8d3e 0cb6 5c3e 6ae0 2abe bbc3 923e
000002d0: c00f c5be a968 083e 98a5 bbbc a561 f0bd
000002e0: c6ca 77bd ba1e b83d babd a13c bb39 503e
000002f0: 6631 5abe be9b af3d def0 a4bd bb66 663e
00000300: b1b8 3abe 3909 863e a154 6dbe 3f4d a43e
00000310: a639 bfbd 52cc 0f3c cc26 9abd fa52 5abe
00000320: 9174 f3bd 98b2 103e a6d7 8cbe 9fbb 8cbe
00000330: a986 e9bc 682c 913d 3021 643e 4877 9a3e
00000340: 14e8 3dbd 99cd c73e a689 c83b 2d1e efbc
00000350: 58a3 213e 0e82 31be 1b28 85be 2949 953d
00000360: d5e9 413e 774d c73c 1f50 233e ef14 eb3e
00000370: 6f06 7e3e a170 82be 4913 d03d 53be 8ebe
00000380: e1dd 973e 9a52 a2be 1aeb 03be de19 d3bd
00000390: 0501 9d3e f409 da3d a069 3b3e 8205 b5be
000003a0: 6b8e 5fbe e47a abbe 2c8f 37be 35f9 883e
000003b0: ff15 91bd e010 f13d 070a a33e 0ce7 20be
000003c0: c040 863d c041 f03c 3e12 0dbe 134c 4fbe
000003d0: a286 6b3e 0f0b 483e 2293 86bd 9731 923e
000003e0: 948c aabe f4bb 5cbe 321b 543e a261 91be
000003f0: 19a6 8abc 0099 b23d cf6e 103d faf4 f2bd
0.095846064 0.12955922 0.2742855 0.25498128 0.34353217 0.098764695 -0.21491052 0.100664526
-0.19659145 -0.32146817 -0.37509012 0.16887273 -0.17548905 0.09594286 -0.36625472 -0.116152965
-0.29251754 0.1056444 -0.2678847 0.22329748 0.35003194 -0.24903663 -0.22577696 0.26057556
-0.14842154 0.061139185 -0.0959271 -0.12991846 -0.10299414 0.08211278 0.13778068 0.2098814
-0.22780356 0.39403105 0.16000001 0.14922912 0.4318051 -0.05365232 0.31162617 -0.21396585
0.39783335 -0.011431698 -0.27473238 0.29533762 0.048258703 -0.14838977 0.30179965 0.20577404
0.39343342 0.23285878 -0.28645197 0.16376624 0.40337527 -0.03620462 -0.039486382 0.22751674
0.23508832 -0.2291774 -0.31439665 0.37294868 0.39380547 -0.2764186 -0.057611115 -0.24332076
-0.06937154 0.24071234 0.08328473 -0.089287534 0.19120085 -0.28673935 0.33775494 0.005734429
-0.3731974 0.32526407 0.20925246 -0.047073837 -0.20874949 0.31729528 0.09606705 -0.22361933
-0.19237483 -0.08961329 -0.15867107 -0.33443084 0.32330436 0.26864722 -0.063471995 0.06674087
-0.048893172 -0.08217361 0.22486845 0.06474624 -0.35479134 -0.1117987 -0.31707987 0.26625356
0.33319262 -0.13516477 -0.041905295 0.07327628 0.43745208 0.06974026 0.30079812 0.10371723
-0.0037157005 -0.10189671 0.15534814 -0.051783215 -0.0047574537 -0.30156764 -0.16481788 -0.12057633
0.15002501 0.1686278 0.2286342 0.1595425 0.27975583 -0.26635343 -0.19280666 0.073233984
-0.22447006 -0.1748365 0.20353827 -0.03839155 -0.20036776 0.08812889 0.16777954 0.21096027
-0.26480374 0.3308605 -0.018950468 -0.042792764 0.16997391 -0.33861288 0.15104066 0.39738148
0.087692685 -0.05728975 -0.29868883 -0.06709043 -0.21537748 0.13546723 0.17334928 -0.26698968
-0.15567559 0.3352847 -0.25663167 0.13400924 0.11376322 -0.08550656 0.2037012 -0.09170467
0.37036717 0.099295914 -0.14602818 0.20706749 0.3516247 0.21165767 0.33505428 -0.285331
-0.25037864 -0.122102216 0.3089636 0.21906246 -0.25365457 0.39312562 0.263261 -0.034451492
0.017674731 -0.006067563 0.1457016 -0.05585183 -0.24999315 -0.18990931 0.16598742 -0.16679119
0.27700922 0.2155382 -0.1668717 0.28664955 -0.3848858 0.13321175 -0.02290611 -0.11737374
-0.060496114 0.089902356 0.019743789 0.20334522 -0.21307907 0.08574627 -0.08053754 0.22500126
-0.18234517 0.2617891 -0.23176815 0.32090184 -0.093371674 0.008776741 -0.07526931 -0.21320716
-0.11887468 0.14130628 -0.27508277 -0.27486894 -0.028506594 0.07088548 0.22278285 0.3016913
-0.046363905 0.39024046 0.0061199246 -0.029189194 0.15784967 -0.17334768 -0.2600716 0.07289345
0.18936856 0.02432893 0.15948533 0.4591441 0.24807142 -0.25476554 0.10159928 -0.2787958
0.29661468 -0.31703645 -0.12882653 -0.10307668 0.3066484 0.1064643 0.18302011 -0.35355765
-0.21831672 -0.33492196 -0.1792571 0.2675263 -0.070842735 0.11770797 0.31843588 -0.15713137
0.06555319 0.029328227 -0.1377649 -0.20243864 0.23000577 0.19535469 -0.06571032 0.2855346
-0.33310378 -0.21556073 0.20713499 -0.283948 -0.016924905 0.08720589 0.035261925 -0.11863132

arith.constant4 f4 [8]
00000000: 3034 283d 98ef 46bd 0632 1d3d 3d93 1d3d
00000010: 1e77 89bc fb78 44bd 364c 5f3d 569a a93d
0.041065395 -0.04856834 0.038377784 0.038470495 -0.016780432 -0.04796694 0.05451604 0.0828139

sequential_1/dense_1_2/BiasAdd/ReadVariableOp f4 [16]
00000000: 3308 6a3d 76cd b63d 5e80 cd3c b6d8 a63d
00000010: 1027 0c3d bc45 593d 8981 cd3d a41f e5bc
00000020: 9340 ecbc 0000 0000 f17c 913d 1441 e2bb
00000030: 183e 893d 46b5 943d 4897 eabc f2f0 843d
0.057136726 0.08925907 0.025085624 0.08146803 0.03421694 0.05304502 0.100344725 -0.027969189
-0.028839385 0.0 0.07103909 -0.0069047306 0.067012966 0.07261138 -0.02863659 0.06491269

sequential_1/dense_1/BiasAdd/ReadVariableOp f4 [32]
00000000: b0aa 30bd c1c1 313d 4c81 803c a863 1c3d
00000010: e83a aa3d 514a 563d 0838 e53c f6bf 7e3d
00000020: 83e5 90bd cce5 003c c3d0 a73c 5cd7 8abc
00000030: 756d 5fbd 44bb 80bd 57af b63d 92aa 0fbd
00000040: 095d dfbc d92e b33d f74f d2ba 68bf da3d
00000050: 9298 aa3d ad71 5d3d 6f62 a8bd bbba 2abd
00000060: a59d 6fbb a9ab 803d 61f5 f63b aaff b03d
00000070: f6ec 663d d41d 64bd 5db5 233d 3b36 15bd
-0.04313153 0.04339767 0.015686654 0.038180977 0.08312017 0.052316967 0.02798082 0.062194787
-0.07075026 0.007867288 0.020485288 -0.016948394 -0.054547746 -0.06285718 0.08920162 -0.035074778
-0.027266042 0.0874917 -0.001604556 0.10681039 0.08329882 0.054063488 -0.082219 -0.041681986
-0.003656247 0.062827416 0.0075365757 0.08642514 0.056378327 -0.05569251 0.039967883 -0.03642867

sequential_1/dense_1/MatMul f4 [32, 7]
00000000: b566 10bd 99de 533e 8fec 283e 5d63 2cbe
00000010: 58c8 373e e62d 9a3d e4bf af3d 6c21 9b3e
00000020: d891 7abe 7c58 493e 5fd4 853e 48de 37be
00000030: f16b c03e 13fa b93e a84f 01be d9b7 983e
00000040: 4ffc 8d3e cf88 8ebe c2a5 f43c eaa7 033e
00000050: 0fe5 bdbe f30a 723e 3d68 fbbc 4709 653e
00000060: ada5 233e 4071 e9be 7673 6d3e 2855 1f3d
00000070: d8f5 b4bd 13bd c83e d897 e23e 2b50 ab3c
00000080: 3432 933e a968 04be 36ff 07be ae27 75bd
00000090: 0e74 9dbe f9a8 cbbe 656d 8fbe 82c2 6ebb
000000a0: f145 c6be 9737 a73e d1c4 b83e 5077 8d3e
000000b0: dd78 ab3e 3e0e c83e cdd0 323d 1735 cfbd
000000c0: cb10 603e ac70 a03a 21b1 cd3d 8a8c 873e
000000d0: 3b1f af3e 050c 5a3d 1829 0bbe 0164 093e
000000e0: 1160 a33d 2e0e 933e 5fbb 573c 09ef b0be
000000f0: b49e 89be 3ffc 9fbe 1430 72be ad3e 803e
00000100: 0c80 c2be 9eda 77be 333b 92be 0d5f e43e
00000110: ece4 5cbe 2ed2 d4bd 94d4 06be 13f6 cdbe
00000120: 5cb9 533e 8edf 213e 89d8 053e 5878 da3e
00000130: 33b9 9a3d 39fb bf3d 8f79 55bd a11a 7e3e
00000140: 30b1 a6be 2298 1ebe 3332 0ebe 4316 a3bd
00000150: e193 8e3e f138 e3bd 4ac7 483e 1bee eaba
00000160: 4929 893e b091 01be 44ca 9f3d 7976 17be
00000170: 33af 153e 4955 07be 7f8b 84be 50cf 653e
00000180: e901 ecbd 07b0 d8be 47a5 85be 5db4 9dbd
00000190: dfea f23d a762 9abd b499 033e c428 bc3e
000001a0: 2ace b73e 9865 92be a02d 22be 6f49 4d3d
000001b0: 45e6 7b3e c563 75bc 0290 5e3e a150 973c
000001c0: b68d 463e 3f89 b2be 5933 a33e 27e9 d5be
000001d0: f480 483e 5b0b 2abe f925 92be f77e dcbe
000001e0: 1bd3 cabe ade6 233e 3525 40be 5ebb 373e
000001f0: d4af 7cbe e965 90be 4c61 23be 9474 d9be
00000200: 31bd 243e 3bfc e5be 76eb 9cbe b4ec 9a3e
00000210: 4c6b 9b3e b4bd d0be 9e91 b5be 8053 e7bb
00000220: e197 b13c 6864 bebb ab56 2cbe 5ad7 9b3e
00000230: cc61 003e ed1a 01bd d8d0 ae3e 4c05 de3e
00000240: 079b cdbe 9fbd 85be 61b2 dabe 4195 efbd
00000250: bcb0 5b3e e218 883e 6078 193e 03d2 a73e
00000260: 3d0a 043e eab7 8e3e 9abf 25be bd23 c63c
00000270: 76fe ab3e 696f 93be d401 f2bd dd27 e43c
00000280: 7a7f 4a3e 989b af3e e1dd bbbd 2c89 5f3e
00000290: 7681 2f3d 3db7 9b3e 3212 34be 1262 4e3e
000002a0: e488 b83d acfb 6cbe c7e6 ec3c 7178 9a3e
000002b0: 6cfa 7b3d 5741 67be eb32 c0be d2d3 b23b
000002c0: 4d57 3e3a ee14 cdbe 2f93 5f3b 52f5 d83e
000002d0: 3046 ad3e 3074 933e 257d 363e e8b8 063e
000002e0: 85ee 7abe cd67 fc3d 5e33 633e 5f49 b53d
000002f0: 9768 a33c dc7d 9d3e b3ba 8a3e 5605 a4be
00000300: 8c5e 2abd 71bb 4ebe 2bce e0be a600 e9be
00000310: f95b 1cbe 82e4 9e3e 2349 5dbe a573 e83d
00000320: e1b0 7bbe 8a69 aebe 0346 2cbe c736 0d3e
00000330: 3c2c 173e 3b49 44be bfe3 8ebd 3c11 9b3e
00000340: 3839 953e b343 a83d bfa1 2cbe 3a8d 753e
00000350: 364c a83e d22a ac3e 1f6a 66be 0e6b c8be
00000360: 0f1c 4abe 8022 a5be 6d96 ca3e 843b 6cbe
00000370: 6365 833e 5bb5 683e 94ef 873e a578 11bd
-0.0352542 0.20690383 0.1649649 -0.16834779 0.17947519 0.07528286 0.08581522 0.30298936
-0.24469697 0.1966266 0.2613859 -0.17955887 0.37582353 0.36323604 -0.12628043 0.29827765
0.2773156 -0.27838752 0.029864196 0.12857023 -0.3708882 0.2363699 -0.030689353 0.2236682
0.15981169 -0.45594215 0.23188576 0.03889957 -0.088359535 0.39206752 0.44256473 0.02091225
0.2874924 -0.1293055 -0.13280949 -0.059852295 -0.30752605 -0.39777353 -0.2801315 -0.0036431854
-0.38725236 0.326596 0.3608766 0.2763009 0.3349065 0.39073366 0.04365616 -0.10117548
0.21881406 0.001224061 0.1004355 0.2647441 0.34203514 0.05323412 -0.13589895 0.13417055
0.079773076 0.28721756 0.013167231 -0.3455737 -0.26878893 -0.31247136 -0.23651153 0.25047818
-0.37988317 -0.2420449 -0.2856079 0.44603768 -0.21571702 -0.10391651 -0.1316703 -0.40226802
0.20676178 0.15807936 0.13070883 0.4266994 0.07554855 0.09374089 -0.05211788 0.24814846
-0.32557058 -0.15487722 -0.13886337 -0.079632305 0.27847198 -0.11094845 0.19607273 -0.0017923744
0.2678931 -0.12653232 0.07802251 -0.14791287 0.14617614 -0.13216127 -0.25887677 0.22442365
-0.11523802 -0.42321798 -0.2610266 -0.07700417 0.11861204 -0.07538348 0.12851602 0.36749852
0.35899478 -0.28593135 -0.15837717 0.05011886 0.2459956 -0.0149774 0.21734622 0.018471064
0.19389996 -0.34870335 0.31875113 -0.41779444 0.19580442 -0.16605894 -0.28544596 -0.43065616
-0.39614186 0.16005965 -0.18764193 0.17942569 -0.24676448 -0.2820275 -0.15955085 -0.42471755
0.16087796 -0.44919 -0.30648392 0.30258715 0.303553 -0.40769732 -0.3546266 -0.0070595145
0.021678867 -0.005810309 -0.16829936 0.30437738 0.12537307 -0.03151982 0.3414371 0.43363416
-0.4015734 -0.26121232 -0.42714217 -0.1169839 0.21454138 0.26581484 0.14987326 0.32777414
0.1289453 0.2787469 -0.16186371 0.024186963 0.33592576 -0.28795937 -0.11816755 0.02785104
0.19775191 0.34298396 -0.091731794 0.2182967 0.042848073 0.30413237 -0.17585066 0.20154598
0.09010485 -0.2314288 0.028918637 0.30170015 0.061518118 -0.22583519 -0.37538847 0.00545738
0.00072609336 -0.4005503 0.0034114828 0.42374665 0.3384261 0.28799582 0.17821176 0.13156474
-0.2450505 0.12324486 0.22187564 0.08851885 0.019947333 0.30760086 0.27095565 -0.3203532
-0.041594073 -0.2018869 -0.43907294 -0.45508307 -0.1526946 0.31033713 -0.2160993 0.113501824
-0.24579193 -0.34064895 -0.16823582 0.13790427 0.14762968 -0.1916856 -0.06977033 0.30286586
0.29145217 0.082160376 -0.16858576 0.23979655 0.32870644 0.3362642 -0.2250142 -0.39144176
-0.19737266 -0.32252884 0.3956789 -0.23069578 0.2566329 0.22725432 0.2654997 -0.035515446
